2024-03-10 15:37:08,668 - root - INFO - Discriminator(
  (model): Sequential(
    (0): Conv2d(6, 64, kernel_size=(4, 4), stride=(2, 2), padding=(1, 1))
    (1): LeakyReLU(negative_slope=0.2, inplace=True)
    (2): Conv2d(64, 128, kernel_size=(4, 4), stride=(2, 2), padding=(1, 1))
    (3): LeakyReLU(negative_slope=0.2, inplace=True)
    (4): BatchNorm2d(128, eps=1e-05, momentum=0.1, affine=True, track_running_stats=True)
    (5): Conv2d(128, 256, kernel_size=(4, 4), stride=(2, 2), padding=(1, 1))
    (6): LeakyReLU(negative_slope=0.2, inplace=True)
    (7): BatchNorm2d(256, eps=1e-05, momentum=0.1, affine=True, track_running_stats=True)
    (8): Conv2d(256, 512, kernel_size=(4, 4), stride=(1, 1), padding=(1, 1))
    (9): LeakyReLU(negative_slope=0.2, inplace=True)
    (10): BatchNorm2d(512, eps=1e-05, momentum=0.1, affine=True, track_running_stats=True)
    (11): Conv2d(512, 1, kernel_size=(4, 4), stride=(1, 1), padding=(1, 1))
    (12): Sigmoid()
  )
)
2024-03-10 15:52:57,595 - root - INFO - Discriminator(
  (model): Sequential(
    (conv2d_1): Conv2d(6, 64, kernel_size=(4, 4), stride=(2, 2), padding=(1, 1), bias=False)
    (leakyReLU_1): LeakyReLU(negative_slope=0.2, inplace=True)
    (conv2d_2): Conv2d(64, 128, kernel_size=(4, 4), stride=(2, 2), padding=(1, 1), bias=False)
    (leakyReLU_2): LeakyReLU(negative_slope=0.2, inplace=True)
    (batchnorm2d_2): BatchNorm2d(128, eps=1e-05, momentum=0.1, affine=True, track_running_stats=True)
    (conv2d_3): Conv2d(128, 256, kernel_size=(4, 4), stride=(2, 2), padding=(1, 1), bias=False)
    (leakyReLU_3): LeakyReLU(negative_slope=0.2, inplace=True)
    (batchnorm2d_3): BatchNorm2d(256, eps=1e-05, momentum=0.1, affine=True, track_running_stats=True)
    (conv2d_4): Conv2d(256, 512, kernel_size=(4, 4), stride=(1, 1), padding=(1, 1), bias=False)
    (leakyReLU_4): LeakyReLU(negative_slope=0.2, inplace=True)
    (batchnorm2d_4): BatchNorm2d(512, eps=1e-05, momentum=0.1, affine=True, track_running_stats=True)
    (out): Conv2d(512, 1, kernel_size=(4, 4), stride=(1, 1), padding=(1, 1), bias=False)
  )
)
