2024-03-10 18:15:34,872 - root - INFO - Generator(
  (encoder_layer1): Encoder(
    (model): Sequential(
      (encoder): Conv2d(3, 64, kernel_size=(4, 4), stride=(2, 2), padding=(1, 1), bias=False)
      (leakyReLU): LeakyReLU(negative_slope=0.2, inplace=True)
    )
  )
  (encoder_layer2): Encoder(
    (model): Sequential(
      (encoder): Conv2d(64, 128, kernel_size=(4, 4), stride=(2, 2), padding=(1, 1), bias=False)
      (leakyReLU): LeakyReLU(negative_slope=0.2, inplace=True)
      (batch_norm): BatchNorm2d(128, eps=1e-05, momentum=0.1, affine=True, track_running_stats=True)
    )
  )
  (encoder_layer3): Encoder(
    (model): Sequential(
      (encoder): Conv2d(128, 256, kernel_size=(4, 4), stride=(2, 2), padding=(1, 1), bias=False)
      (leakyReLU): LeakyReLU(negative_slope=0.2, inplace=True)
      (batch_norm): BatchNorm2d(256, eps=1e-05, momentum=0.1, affine=True, track_running_stats=True)
    )
  )
  (encoder_layer4): Encoder(
    (model): Sequential(
      (encoder): Conv2d(256, 512, kernel_size=(4, 4), stride=(2, 2), padding=(1, 1), bias=False)
      (leakyReLU): LeakyReLU(negative_slope=0.2, inplace=True)
      (batch_norm): BatchNorm2d(512, eps=1e-05, momentum=0.1, affine=True, track_running_stats=True)
    )
  )
  (encoder_layer5): Encoder(
    (model): Sequential(
      (encoder): Conv2d(512, 512, kernel_size=(4, 4), stride=(2, 2), padding=(1, 1), bias=False)
      (leakyReLU): LeakyReLU(negative_slope=0.2, inplace=True)
      (batch_norm): BatchNorm2d(512, eps=1e-05, momentum=0.1, affine=True, track_running_stats=True)
    )
  )
  (encoder_layer6): Encoder(
    (model): Sequential(
      (encoder): Conv2d(512, 512, kernel_size=(4, 4), stride=(2, 2), padding=(1, 1), bias=False)
      (leakyReLU): LeakyReLU(negative_slope=0.2, inplace=True)
      (batch_norm): BatchNorm2d(512, eps=1e-05, momentum=0.1, affine=True, track_running_stats=True)
    )
  )
  (encoder_layer7): Encoder(
    (model): Sequential(
      (encoder): Conv2d(512, 512, kernel_size=(4, 4), stride=(2, 2), padding=(1, 1), bias=False)
      (leakyReLU): LeakyReLU(negative_slope=0.2, inplace=True)
    )
  )
  (decoder_layer1): Decoder(
    (model): Sequential(
      (decoder): ConvTranspose2d(512, 512, kernel_size=(4, 4), stride=(2, 2), padding=(1, 1), bias=False)
      (ReLU): ReLU(inplace=True)
      (batch_norm): BatchNorm2d(512, eps=1e-05, momentum=0.1, affine=True, track_running_stats=True)
    )
  )
  (decoder_layer2): Decoder(
    (model): Sequential(
      (decoder): ConvTranspose2d(1024, 512, kernel_size=(4, 4), stride=(2, 2), padding=(1, 1), bias=False)
      (ReLU): ReLU(inplace=True)
      (batch_norm): BatchNorm2d(512, eps=1e-05, momentum=0.1, affine=True, track_running_stats=True)
    )
  )
  (decoder_layer3): Decoder(
    (model): Sequential(
      (decoder): ConvTranspose2d(1024, 512, kernel_size=(4, 4), stride=(2, 2), padding=(1, 1), bias=False)
      (ReLU): ReLU(inplace=True)
      (batch_norm): BatchNorm2d(512, eps=1e-05, momentum=0.1, affine=True, track_running_stats=True)
    )
  )
  (decoder_layer4): Decoder(
    (model): Sequential(
      (decoder): ConvTranspose2d(1024, 256, kernel_size=(4, 4), stride=(2, 2), padding=(1, 1), bias=False)
      (ReLU): ReLU(inplace=True)
      (batch_norm): BatchNorm2d(256, eps=1e-05, momentum=0.1, affine=True, track_running_stats=True)
    )
  )
  (decoder_layer5): Decoder(
    (model): Sequential(
      (decoder): ConvTranspose2d(512, 128, kernel_size=(4, 4), stride=(2, 2), padding=(1, 1), bias=False)
      (ReLU): ReLU(inplace=True)
      (batch_norm): BatchNorm2d(128, eps=1e-05, momentum=0.1, affine=True, track_running_stats=True)
    )
  )
  (decoder_layer6): Decoder(
    (model): Sequential(
      (decoder): ConvTranspose2d(256, 64, kernel_size=(4, 4), stride=(2, 2), padding=(1, 1), bias=False)
      (ReLU): ReLU(inplace=True)
      (batch_norm): BatchNorm2d(64, eps=1e-05, momentum=0.1, affine=True, track_running_stats=True)
    )
  )
  (output_layer): ConvTranspose2d(128, 3, kernel_size=(4, 4), stride=(2, 2), padding=(1, 1), bias=False)
)
